checkpoint/congestion.pth (torch, 493586 bytes, 47 tensors)

encoder.c1.main.0.weight f4 [32, 3, 3, 3]
0	0xbe290fa4	-0.16509873
1	0xbe1d4b5c	-0.15360779
2	0xbe485a7c	-0.19565767
3	0xbdeae162	-0.114687696
4	0xbdcf75f9	-0.101299234
5	0xbe6fdd49	-0.23424257
6	0xbd80d564	-0.06290701
7	0xbc933369	-0.01796885
8	0xbe148f17	-0.1450771
9	0xba578359	-0.00082211714
10	0xbcc98d7a	-0.024603594
11	0xbd22baa1	-0.039728764
12	0x3c8cfc98	0.01721029
13	0xbc1c7541	-0.00954944
14	0x3c0874e5	0.008328651
15	0x3d608e07	0.054822948
16	0x3d168649	0.036749158
17	0x3d38f8b1	0.045159046
18	0xbd6f0810	-0.0583573
19	0xbcbdfd57	-0.02319209
20	0xbce5e489	-0.028063076
21	0x3b383118	0.0028105434
22	0xbb4468ca	-0.0029969686
23	0xbcbdac69	-0.0231535
24	0xbc0a9dab	-0.008460443
25	0x399aed0f	0.0002954979
26	0xbbfafd49	-0.0076595885
27	0xbd05c738	-0.032660693
28	0xbc9f857e	-0.019472834
29	0xbb819b6b	-0.003955295
30	0xbb2e1f98	-0.0026569124
31	0xbd97c200	-0.074100494
32	0xbc7ea010	-0.015541092
33	0x3d1458e2	0.036217578
34	0x3d1a4d1a	0.037671186
35	0x3d03d62c	0.032186672
36	0x3d94263f	0.07233857
37	0x3e379c6f	0.17930768
38	0x3d489ae2	0.048975833
39	0xbddd4a3d	-0.108051755
40	0xbd0800b7	-0.033203807
41	0xbe14af61	-0.14520027
42	0x3c07e7a1	0.008294971
43	0x3d9875f7	0.07444375
44	0xbca9a81f	-0.02071005
45	0x3c85ea96	0.01634721
46	0xbcf5b28c	-0.029992364
47	0xbc9f268b	-0.019427558
48	0x3d88e784	0.06684783
49	0xbce5e5d2	-0.028063688
50	0x3c625876	0.013815036
51	0x3b40b29e	0.002940334
52	0xbd90e61c	-0.0707514
53	0xbc8d8915	-0.01727728
54	0x3c850052	0.016235504
55	0x3d09ea1e	0.033670537
56	0x3ad057db	0.0015895324
57	0xbc608f13	-0.013705987
58	0x3d1f4e21	0.03889287
59	0xbcff9fdb	-0.031204155
60	0xbbedde7c	-0.007259188
61	0xbbb5714a	-0.0055371867
62	0xba117b85	-0.0005549717
63	0xbc469b39	-0.012121969
64	0xbda5b782	-0.08091642
65	0xbbf91267	-0.0076010707
66	0xbcda4096	-0.026642125
67	0xbda971a1	-0.08273626
68	0xbc9bd633	-0.019023037
69	0xbd2f2b7b	-0.042766076
70	0xbd808dbe	-0.06277035
71	0xbc75dba7	-0.0150059825
72	0x3e0af11b	0.13568537
73	0x3d8100a9	0.06298954
74	0x3dd974ab	0.10617956
75	0x3e0dc419	0.13844337
76	0x3d7530e2	0.05986107
77	0x3e0d03aa	0.13770929
78	0x3e14a0a3	0.14514403
79	0x3daac026	0.08337431
80	0x3e0a434f	0.13502239
81	0xbcb1a925	-0.0216871
82	0x3d2fc600	0.042913437
83	0xbcac693c	-0.021046273
84	0xbaf21c0c	-0.0018471493
85	0x3d332e7b	0.0437455
86	0x3ce48d1f	0.027899323
87	0x3d1fddab	0.03902976
88	0x3d842b5a	0.06453581
89	0x3d8c398f	0.06846916
90	0xbc874b5e	-0.01651543
91	0xbcc31d3f	-0.023817657
92	0x3ad643b4	0.0016347081
93	0xbd240170	-0.040040433
94	0xbd5d8f70	-0.05409187
95	0xbcaef27b	-0.021355858
96	0xbc810390	-0.015748769
97	0xbd2c7969	-0.042107973
98	0xbc44c443	-0.012009683
99	0xbcd2ab04	-0.025716312
100	0xbe21add2	-0.15788963
101	0xbe28e862	-0.16494897
102	0xbda0e70f	-0.07856571
103	0xbe4d6cfc	-0.20061105
104	0xbe1c56f9	-0.15267552
105	0xbd36017e	-0.044435017
106	0xbe09aea2	-0.13445523
107	0xbdea469b	-0.11439248
108	0xbcaa2d3b	-0.02077352
109	0xbbf9656e	-0.0076109683
110	0x3d54171a	0.051779844
111	0xbca3256a	-0.019915301
112	0xbbf60a35	-0.007508541
113	0x3db8a3e7	0.09015637
114	0xbd86d69a	-0.06583901
115	0xbd86ecd2	-0.06588139
116	0x3c8adc89	0.016950862
117	0xbd247cfa	-0.04015825
118	0x3db39eab	0.08770498
119	0xbca8fc3c	-0.020628087
120	0xbdd7ed6c	-0.105433315
121	0x3d9a1bd4	0.07524839
122	0xbd890c21	-0.066917665
123	0xbd3a3355	-0.04545911
124	0x3e20588e	0.15658781
125	0xbc09a327	-0.008400715
126	0xbd6f4666	-0.058416747
127	0xbd1e97f0	-0.038719118
128	0x3cefaaf4	0.029256321
129	0x3c88bcc6	0.016691577
130	0x3cf1b29b	0.029504111
131	0x3d0f835e	0.03503739
132	0xbd3ac4db	-0.045597892
133	0xbc40ad6e	-0.011760099
134	0x3d800272	0.062504664
135	0xbb72cc6e	-0.003704812
136	0x3bfc6e12	0.007703551
137	0xbdc1758d	-0.09446249
138	0x3d5db8a7	0.054131176
139	0xbc8a01ad	-0.016846502
140	0xbd9e9011	-0.07742322
141	0x3d187de2	0.037229426
142	0xbbf28d66	-0.00740211
143	0xbd4d60a9	-0.05014101
144	0x3cc5160e	0.024058368
145	0x3c96d410	0.018411666
146	0x3c8da354	0.017289795
147	0x3d2bd1f0	0.04194826
148	0x3cc83fbd	0.024444455
149	0x3d46af74	0.04850717
150	0x3d0a5af9	0.033778165
151	0x3d14ba4e	0.036310486
152	0x3d360014	0.04443367
153	0xbde597fc	-0.11210629
154	0xbdc058c6	-0.09391932
155	0xbda1fba3	-0.07909324
156	0xbe02a4ef	-0.1275823
157	0xbe062bbd	-0.13102622
158	0xbdd6a836	-0.104813024
159	0xbddfaec5	-0.109220065
160	0xbde9200a	-0.11383064
161	0xbdd75d06	-0.1051579
162	0xbdbfcd5a	-0.093653396
163	0xbd77ab14	-0.060465887
164	0xbd94ff96	-0.07275312
165	0xbdfa2a91	-0.1221515
166	0xbdf0fd87	-0.117671065
167	0xbde89a0b	-0.11357506
168	0xbe2b815a	-0.16748562
169	0xbdf990a3	-0.121857904
170	0xbe34ad34	-0.17644197
171	0xbd26fdd0	-0.0407694
172	0xbcb03f98	-0.021514699
173	0xbc79da34	-0.015249778
174	0x3a761813	0.00093877426
175	0xba281484	-0.00064117485
176	0xbcd89962	-0.026440326
177	0xbc90fed4	-0.017699637
178	0xbb9570f4	-0.004560584
179	0xbccd2e07	-0.025046362
180	0xbc9498f9	-0.01813935
181	0x3b6f4748	0.0036510993
182	0xbd6c3fa9	-0.0576779
183	0x3dc4fea5	0.09618882
184	0x3d5f68f3	0.054543447
185	0x3d9b88b3	0.07594433
186	0x3d8f533d	0.06998298
187	0x3d0df28d	0.034655143
188	0x3b7faab0	0.003901165
189	0x3d11f43f	0.03563332
190	0xbcafa33d	-0.021440143
191	0x3b8e008b	0.004333561
192	0x3e105700	0.14095688
193	0x3dda6c64	0.10665205
194	0x3db95a1e	0.090503916
195	0x3cecda9e	0.028912839
196	0x3c10936a	0.008824209
197	0x3b85e671	0.0040863086
198	0xbc06ab89	-0.008219608
199	0x3ca01926	0.019543242
200	0x3c07051d	0.008240965
201	0x3d2a7c8f	0.041622695
202	0x3ccb39b4	0.024807788
203	0x3cc48232	0.023987863
204	0x3d51d9fb	0.051233273
205	0x3d849903	0.06474497
206	0x3c919f73	0.017776227
207	0xbdbfe2e4	-0.09369448
208	0xbdd21264	-0.10257414
209	0xbe2218a1	-0.15829708
210	0xbdd37eac	-0.10326895
211	0xbe0ada55	-0.1355985
212	0xbe1b6a01	-0.15177156
213	0xbc9b560e	-0.018961933
214	0xbd42e217	-0.047578897
215	0xbdae97b9	-0.085250326
216	0x3e731434	0.23738176
217	0x3dc6d243	0.09708073
218	0x3dbd3340	0.09238291
219	0xbcf7e3b0	-0.030259937
220	0xbd187e91	-0.037230078
221	0xbce6c423	-0.028169697
222	0xbc6889e2	-0.01419303
223	0xbda2b6f1	-0.079450496
224	0xbcc60ddb	-0.024176529
225	0xbc6cc63c	-0.01445156
226	0xbca3dd17	-0.020002885
227	0xbd12f71e	-0.0358802
228	0x3d10e34c	0.035373017
229	0x3be73cf2	0.007056826
230	0x3d057e09	0.0325909
231	0x3c69c49a	0.014268065
232	0x3c4a4467	0.01234541
233	0x3c48943b	0.012242372
234	0x3c81cbac	0.015844189
235	0xbcc0ede3	-0.023550933
236	0x3c118e31	0.008883999
237	0xbcd826f5	-0.026385764
238	0xbccd4768	-0.025058463
239	0x3c9d2a75	0.019185284
240	0x3ca4fd9b	0.02014046
241	0x3d656043	0.056000005
242	0x3d07d13d	0.03315853
243	0x3d9b2c2a	0.07576783
244	0x3d57e110	0.05270487
245	0xbc902246	-0.017594468
246	0x3ce1cec3	0.027564412
247	0xbcd2b7b7	-0.025722368
248	0xbcdecba7	-0.027196718
249	0xbbe22d0b	-0.006902342
250	0xbd20096f	-0.039071497
251	0xbd9630af	-0.073335044
252	0x3cd4af44	0.02596248
253	0x3da24bc6	0.07924609
254	0x3c00bda8	0.007857718
255	0xbe10c789	-0.14138617

encoder.c1.main.0.bias f4 [32]
0	0xba3a5f2d	-0.0007109519
1	0x3d68cb36	0.056834422
2	0xbcc792a0	-0.024361908
3	0x3d3a770f	0.0455237
4	0xbd1b2321	-0.0378753
5	0xbb6fb9d4	-0.0036579268
6	0x3c71b7b8	0.014753275
7	0xbd3f54b0	-0.046711624
8	0x3d902423	0.070381425
9	0xbd6b0def	-0.057386335
10	0xbdafad5b	-0.08577987
11	0xbd0e892a	-0.03479878
12	0x3d72cd8e	0.059278063
13	0xbce9be98	-0.028533265
14	0x3d67bd04	0.056576744
15	0xbb9ee4b2	-0.00484904
16	0x3c1b65db	0.009484733
17	0xbe01587d	-0.12631412
18	0xbd2a7c43	-0.04162241
19	0xbb926b99	-0.004468393
20	0xbad0d4e1	-0.0015932583
21	0xbcc5d4bf	-0.024149297
22	0x3bcdb5e2	0.0062777856
23	0xbb50adc5	-0.0031841856
24	0x3d64e9ab	0.055886906
25	0xbc9ebc15	-0.019376794
26	0x3d55e70a	0.05222229
27	0x3d554758	0.05206999
28	0xbd1d4c1c	-0.03840266
29	0x3d4283cc	0.047488973
30	0xbd2cd375	-0.04219385
31	0x3ddb765b	0.10715934

encoder.c1.main.1.weight f4 [32]
0	0x3f6de787	0.9293141
1	0x3f9fbb04	1.2478948
2	0x3f81eaa6	1.0149734
3	0x3f587383	0.84551257
4	0x3f93e46c	1.1554084
5	0x3f7ce1f7	0.98782295
6	0x3f73ce14	0.95236325
7	0x3f65420b	0.895539
8	0x3f77b91b	0.96766824
9	0x3f88d803	1.0690922
10	0x3f7c9997	0.9867186
11	0x3f65ac28	0.89715815
12	0x3f80b23b	1.0054392
13	0x3f68b639	0.9090305
14	0x3f6a6b19	0.9156967
15	0x3f676469	0.9038759
16	0x3f706c35	0.9391511
17	0x3f74f6eb	0.95689267
18	0x3f8d2106	1.1025703
19	0x3f6c6c97	0.92353195
20	0x3f7768eb	0.9664447
21	0x3f74ecd3	0.95673865
22	0x3f648b8e	0.89275444
23	0x3f660eed	0.89866525
24	0x3f62e47b	0.88629884
25	0x3f5d5991	0.8646479
26	0x3f515576	0.8177103
27	0x3f7cb548	0.98714113
28	0x3f7db1ca	0.9909941
29	0x3f7aec0b	0.98016423
30	0x3f8a64f7	1.0812062
31	0x3f72161a	0.94564974

encoder.c1.main.1.bias f4 [32]
0	0xbd84bcf9	-0.06481356
1	0x3d9170b8	0.071015775
2	0xbe0568e2	-0.13028291
3	0xbd402e89	-0.04691938
4	0x3e0377ea	0.12838712
5	0xbdbd12c4	-0.09232095
6	0xbda4345b	-0.080177985
7	0xbe280cbb	-0.16411106
8	0xbe00197a	-0.12509719
9	0xbb4f160a	-0.003159883
10	0xbe99db27	-0.30050012
11	0xbdf2d245	-0.11856512
12	0xbda74a8a	-0.08168514
13	0xbe46d6cc	-0.19417876
14	0xbe046edd	-0.12932916
15	0xbe3b78d5	-0.18307813
16	0xbdd71169	-0.105013676
17	0xbe12a3ad	-0.1432025
18	0x3c7d149c	0.015446808
19	0xbe23cc9f	-0.15996026
20	0xbe1e0ccb	-0.15434568
21	0xbe0c67e4	-0.13711506
22	0xbb56db68	-0.0032784585
23	0xbdb65b58	-0.08904141
24	0xbd6c071f	-0.05762398
25	0xbdc5e88b	-0.09663495
26	0xbe656ee1	-0.22405578
27	0xbd32b9cf	-0.043634232
28	0xbc828456	-0.015932243
29	0xbe1c74c0	-0.15278912
30	0xbe26c637	-0.1628655
31	0xbe373372	-0.17890719

encoder.c1.main.3.weight f4 [32, 32, 3, 3]
0	0x3da90b92	0.0825416
1	0x3d94b0b8	0.07260269
2	0x3c0e6130	0.0086901635
3	0x3dc9312f	0.09823834
4	0x3daf2caa	0.08553441
5	0x3cdbf80b	0.026851675
6	0x3cc938d2	0.024563227
7	0x3d169984	0.036767498
8	0x3d1805ba	0.037114836
9	0x3ce36d3f	0.027762054
10	0x3cbd9ff2	0.023147557
11	0x3c8cf6d1	0.017207535
12	0x3b8f6559	0.0043760953
13	0xb991a389	-0.00027778398
14	0xbbfa1587	-0.007631961
15	0x3c9425fe	0.018084522
16	0x3cd5469b	0.026034644
17	0xbb915f36	-0.004436399
18	0xbc806ad3	-0.015675938
19	0xba60f429	-0.00085813046
20	0x3c80ae6e	0.015708175
21	0x3bcc8d34	0.0062424187
22	0x3b9c1ef1	0.0047644307
23	0x3c1d411e	0.009598045
24	0x3c004ae6	0.007830357
25	0xbbe14625	-0.006874817
26	0x3c29bf88	0.010360606
27	0xbe04fa01	-0.12985994
28	0xbd514492	-0.051090784
29	0xbd8b8e0f	-0.06814205
30	0xbdd7459d	-0.105113246
31	0xbd9ec55c	-0.07752487
32	0xbde421ca	-0.11139257
33	0xbe04d71a	-0.1297268
34	0xbd7f98b8	-0.062401503
35	0xbdcf0e6e	-0.10110174
36	0x3d300c02	0.0429802
37	0xbd4d3efc	-0.050108895
38	0xbc7d8356	-0.015473207
39	0x3c4e3baa	0.012587467
40	0xbd096b60	-0.033549666
41	0xbd4e5311	-0.050372187
42	0x3d07e7e8	0.033180147
43	0xbcac862a	-0.021060068
44	0xbcae3330	-0.021264642
45	0x3d339695	0.043844778
46	0x3d20a3a5	0.039218564
47	0x3d19c837	0.037544455
48	0x3d049e9a	0.032377817
49	0x3c9c3dae	0.01907238
50	0x3c8207ba	0.015872825
51	0x3d7065d1	0.05869085
52	0x3c956ea0	0.018241227
53	0x3d74b956	0.059747063
54	0x3db8f048	0.09030205
55	0x3e25b629	0.1618277
56	0x3de0b563	0.10972097
57	0x3de3699a	0.11104126
58	0x3e2165f0	0.15761542
59	0x3e07d048	0.13263047
60	0x3e0b23eb	0.1358792
61	0x3df7deea	0.12103064
62	0x3df87602	0.12131883
63	0xbc97dbd3	-0.018537438
64	0xbd8d6de6	-0.06905727
65	0xbc9391ed	-0.018013919
66	0xbcd76e03	-0.026297575
67	0xbc9bbfe8	-0.019012406
68	0x3bf10f88	0.007356588
69	0xbdf151ad	-0.117831565
70	0xbd335bb2	-0.04378862
71	0xbd8793af	-0.06619965
72	0x3c1c2e90	0.009532586
73	0xbd23d3bd	-0.03999685
74	0xbccc05ff	-0.024905203
75	0x3d190bb6	0.037364684
76	0x3c6244a8	0.013810314
77	0x3cb19794	0.021678723
78	0x3da74bb3	0.08168735
79	0x3db83866	0.08995132
80	0x3da490ba	0.08035417
81	0xbd19a21f	-0.037508126
82	0x3c4b3a80	0.012404084
83	0xbb806d34	-0.003919268
84	0x3b5adcc9	0.0033395758
85	0x3d87ca2b	0.06630357
86	0x3c94f8b1	0.018184992
87	0x3d39f060	0.045395255
88	0x3dd518f5	0.10405151
89	0x3d5f2d05	0.054486293
90	0x3d50b474	0.050953344
91	0x3c3c68e3	0.011499616
92	0x3d040dc9	0.03223971
93	0x3cdaef88	0.026725546
94	0x3c26d02b	0.010181467
95	0x3a2ee679	0.00066719163
96	0x3c8c2c7f	0.017111061
97	0xbcb3427b	-0.021882286
98	0xbbd5b695	-0.0065220096
99	0x3cfa1cd9	0.030531334
100	0xbac73099	-0.0015196978
101	0xbc5fd1a2	-0.01366082
102	0x3c605928	0.0136931315
103	0xbc8c4910	-0.017124683
104	0xbb57bf2a	-0.003292034
105	0xbc3d2c08	-0.011546142
106	0xbcadd837	-0.021221263
107	0xbd9a660b	-0.075389944
108	0xbde3204c	-0.110901445
109	0xbd60307f	-0.05473375
110	0xbcf6fe35	-0.030150512
111	0xbdd5e08c	-0.104432195
112	0xbd831c1e	-0.06401847
113	0xbd0505ec	-0.03247635
114	0xbe0a2f9d	-0.13494726
115	0xbde72ac6	-0.11287455
116	0xbda30294	-0.07959476
117	0xbbdb1917	-0.0066863406
118	0x3b78fabc	0.0037991246
119	0xbdd5a99d	-0.10432742
120	0x3cd6f0b1	0.026237817
121	0xbcb035e9	-0.021510081
122	0xbcc2e8d8	-0.02379267
123	0x3d5d773a	0.05406878
124	0x3d33a338	0.04385683
125	0xbd19d93f	-0.037560698
126	0x3d9f8bc1	0.07790328
127	0x3d90aa51	0.07063735
128	0x3d96c00e	0.0736085
129	0x3d3ba521	0.045811776
130	0x3dbe3cbb	0.09288927
131	0x3d4171a2	0.04722751
132	0xbba5b098	-0.005056452
133	0x3ca8abcd	0.020589733
134	0x3d0584d6	0.032597385
135	0x3d5e8033	0.05432148
136	0xba4fd764	-0.0007928519
137	0x3d728950	0.059212983
138	0x3aad42e3	0.0013218786
139	0x3c5eebf4	0.01360606
140	0xbcb90e44	-0.02258981
141	0x3c8d5597	0.017252726
142	0xbcd69710	-0.02619508
143	0xba046711	-0.00050507585
144	0x3d9a7466	0.075417325
145	0x3ddcb295	0.10776249
146	0x3d81babe	0.06334446
147	0x3db42cf4	0.08797637
148	0x3dee5706	0.11637692
149	0x3de02f1a	0.10946484
150	0x3d95c991	0.07313836
151	0x3df314d1	0.11869205
152	0x3dbef7c1	0.09324599
153	0xbd83c390	-0.06433785
154	0xbdddd9c6	-0.108325526
155	0xbd12d563	-0.035848033
156	0xbd9e0602	-0.0771599
157	0xbe29184f	-0.16513179
158	0xbd3704f5	-0.04468246
159	0xbbb31d30	-0.005466126
160	0xbd9f6727	-0.077833466
161	0x3cae6659	0.021289038
162	0xbc9aaf96	-0.018882554
163	0xbc8dc15f	-0.01730412
164	0xbdb481da	-0.0881383
165	0x3d83e7a6	0.06440668
166	0x3c79ddfe	0.015250681
167	0xbcef3e83	-0.029204613
168	0x3d6ab858	0.05730471
169	0x3ac52d23	0.0015043359
170	0xbcc056ea	-0.023478944
171	0x3d8a6295	0.06757084
172	0xbcbe1497	-0.023203177
173	0xbc18ca34	-0.009325553
174	0x3c2812da	0.010258401
175	0xbca2f4f0	-0.019892186
176	0xbbf02fcb	-0.007329916
177	0x3dbd70ac	0.09250006
178	0x3da89071	0.08230675
179	0x3daad40a	0.083412245
180	0xbcef530f	-0.02921441
181	0xbcb905d6	-0.02258579
182	0xbcc955c4	-0.024577029
183	0x3cfd67a6	0.030933212
184	0x3d1d0b4a	0.038340844
185	0x3c9bc3df	0.019014297
186	0x3cd6f7e3	0.026241248
187	0x3cac4e47	0.02103342
188	0xbcb16bea	-0.021657903
189	0xbd1aa60a	-0.037756003
190	0x3ce46ba5	0.02788336
191	0x3cb6f0d5	0.022331635
192	0xbcb009f4	-0.021489121
193	0x3cdca52c	0.026934229
194	0xbcf4d39c	-0.02988606
195	0x3dcc1e30	0.09966695
196	0x3dcbbc46	0.0994802
197	0x3e0976e6	0.13424262
198	0xbdcf23f7	-0.101142816
199	0xbd2d7510	-0.042347968
200	0xbd7a3912	-0.061089583
201	0xbd93e401	-0.07221223
202	0xbda61470	-0.08109367
203	0xbd81325a	-0.06308432
204	0xbd9c6b9a	-0.07637711
205	0xbd762b3f	-0.060099836
206	0xbd555fcb	-0.05209331
207	0x3da2b746	0.07945113
208	0x3db7202c	0.08941683
209	0x3d6d98fc	0.058007225
210	0x3d2d1a22	0.04226125
211	0x3e039c1e	0.12852523
212	0x3da9cfbd	0.08291576
213	0x3d6872dc	0.056750163
214	0x3da3299e	0.07966922
215	0x3d9aeea0	0.07565045
216	0xbd5ad3c2	-0.053424604
217	0xbd47258c	-0.048619792
218	0xbcf753a3	-0.030191248
219	0xbdc1b5ab	-0.094584785
220	0xbdddf18e	-0.108370885
221	0xbd7864e2	-0.060643084
222	0xbe03e0c4	-0.1287871
223	0xbdf36644	-0.1188474
224	0xbdc29e5b	-0.0950286
225	0x3c7a4aad	0.015276593
226	0x3d45ca53	0.048288655
227	0x3ccf1bb0	0.025281757
228	0x3d9e6ec5	0.07735971
229	0x3e00ec22	0.12590078
230	0x3d47f668	0.048818976
231	0x3ce57b49	0.028012889
232	0x3c76a144	0.015053097
233	0x3d0ba391	0.034091536
234	0x3d15f225	0.03660788
235	0x3d0ea437	0.034824576
236	0x3d093df8	0.033506364
237	0xbc564873	-0.013078797
238	0x3d49bef5	0.049254376
239	0xbbf2274c	-0.0073899385
240	0xbbe4c694	-0.00698168
241	0x3d2b8437	0.041874137
242	0xbbfc0b77	-0.0076917964
243	0x3d70fc56	0.058834396
244	0x3d93ffe1	0.072265394
245	0x3d0d69a6	0.034524582
246	0x3d710bbd	0.058849085
247	0x3db021e2	0.08600213
248	0x3d8c21c5	0.068423785
249	0x3d8d0d4a	0.068873
250	0x3de84e1b	0.113430224
251	0x3db81671	0.08988655
252	0x3c4848b6	0.012224367
253	0x3cbc8290	0.023011476
254	0xbc0e0a53	-0.008669454
255	0x3ccaaaaf	0.024739591

encoder.c1.main.3.bias f4 [32]
0	0xbcda50d4	-0.02664987
1	0x3cebba13	0.02877525
2	0x3c5c6c83	0.013453606
3	0x3c108e25	0.008822952
4	0xbcb12b6d	-0.021627152
5	0xbcf447c2	-0.029819373
6	0xbcff7623	-0.031184262
7	0xbc2ef413	-0.010678309
8	0xbc9211cd	-0.017830754
9	0xbc3c7ff5	-0.011505117
10	0xbcf1e948	-0.029530182
11	0xbca142f1	-0.01968524
12	0xbc24671e	-0.010034351
13	0xbd32cd79	-0.043652985
14	0x3d8363aa	0.06415494
15	0x3d441338	0.04786989
16	0x3c1e8c4a	0.009677002
17	0x3c1217da	0.0089168195
18	0xbcd0ee7a	-0.02550434
19	0xbcd5dada	-0.026105333
20	0xbc5c5844	-0.013448779
21	0x3bdcf263	0.006742762
22	0xbcb49e0c	-0.022048019
23	0xbd4176c0	-0.04723239
24	0xb93e3894	-0.00018140889
25	0x3ca6154d	0.020273829
26	0x3b7bd0b3	0.0038423955
27	0xbd0266fd	-0.0318365
28	0x3c968907	0.018375887
29	0xbcfc1be9	-0.030775027
30	0x3c05b1ee	0.0081600975
31	0xbd30d15e	-0.043168418

encoder.c1.main.4.weight f4 [32]
0	0x3f5e3671	0.8680182
1	0x3f78fcef	0.97260946
2	0x3f57d75f	0.84313005
3	0x3f521712	0.8206645
4	0x3f7c676f	0.9859533
5	0x3f702d21	0.9381886
6	0x3f60c2dc	0.8779733
7	0x3f607ece	0.8769349
8	0x3f679898	0.90467215
9	0x3f64bcd3	0.8935062
10	0x3f7f9ef9	0.9985195
11	0x3f556af9	0.8336635
12	0x3f55a9b4	0.8346207
13	0x3f7ecf6d	0.99535257
14	0x3f738000	0.9511719
15	0x3f70b6e1	0.9402905
16	0x3f668cca	0.9005858
17	0x3f659006	0.8967289
18	0x3f65661a	0.8960892
19	0x3f7c5cea	0.98579276
20	0x3f7e6c40	0.99383926
21	0x3f6a1a16	0.91446054
22	0x3f4f3683	0.80942553
23	0x3f7e2c08	0.99285936
24	0x3f75cc0d	0.9601448
25	0x3f80678a	1.0031598
26	0x3f6247a8	0.8839059
27	0x3f5188f5	0.81849605
28	0x3f6528ee	0.8951558
29	0x3f606065	0.87647086
30	0x3f50dfbd	0.815914
31	0x3f621101	0.88307196

encoder.c1.main.4.bias f4 [32]
0	0xbe376303	-0.17908864
1	0xbd63074f	-0.055426892
2	0xbdd50a0b	-0.10402306
3	0xbe27d9b8	-0.16391647
4	0xbd10f6ea	-0.035391726
5	0xbde9d71c	-0.11417982
6	0xbe0dbe3c	-0.138421
7	0xbe78a57e	-0.2428188
8	0xbe0550d1	-0.1301911
9	0xbe153f52	-0.14574936
10	0xbd9164af	-0.07099282
11	0xbe83b41a	-0.25723344
12	0xbe43b076	-0.19110283
13	0xbde6b3f5	-0.11264793
14	0xbe3aa587	-0.18227206
15	0xbda4bf59	-0.08044309
16	0xbe27daef	-0.1639211
17	0xbdd19418	-0.10233325
18	0xbdd8d498	-0.10587424
19	0xbdd8fa57	-0.105946235
20	0xbe9511ca	-0.29115134
21	0xbd01fd3f	-0.031735655
22	0xbe373adc	-0.17893547
23	0xbe02d308	-0.12775815
24	0xbd95dd78	-0.073176324
25	0xbe90caac	-0.28279626
26	0xbd26bec0	-0.040709257
27	0xbe170be1	-0.14750625
28	0xbd99e049	-0.07513482
29	0xbdf5c12d	-0.11999736
30	0xbe290945	-0.16507442
31	0xbd9cb079	-0.07650847

encoder.c2.main.0.weight f4 [64, 32, 3, 3]
0	0xbd7b7e2b	-0.06139962
1	0xbd7a22fa	-0.061068512
2	0xbccb831d	-0.024842793
3	0xbda9f0f4	-0.08297911
4	0xbd35250a	-0.044224776
5	0xbcf6d362	-0.030130092
6	0xbd4002f1	-0.046877805
7	0xbd5af3c4	-0.05345513
8	0xbd0330dc	-0.032029018
9	0xbd5c2608	-0.053747207
10	0xbd4ce395	-0.050021727
11	0xbd0d67fc	-0.034522995
12	0x3b9265c5	0.0044676983
13	0xbd823583	-0.06357863
14	0xbd7d2817	-0.06180581
15	0xbd083974	-0.033257917
16	0xbdb39bdf	-0.087699644
17	0xbd6326f0	-0.055457056
18	0xbd5224c0	-0.05130458
19	0xbd9931c2	-0.07480194
20	0xbd723e82	-0.059141643
21	0xbd75cf5a	-0.0600122
22	0xbd9d3938	-0.07676929
23	0xbd4b9f28	-0.04971233
24	0xbdd1ad88	-0.102381766
25	0xbdac2258	-0.08404988
26	0xbdae6ebd	-0.085172154
27	0xbd4a16cf	-0.04933816
28	0xbceb398f	-0.02871397
29	0x3cc36056	0.023849647
30	0xbd12a8c9	-0.035805497
31	0x3c8cd8d7	0.017193241
32	0x3c9db66e	0.019252028
33	0xbc2c47e7	-0.01051519
34	0x3d45f39d	0.04832803
35	0xbb1d078c	-0.0023960797
36	0x3c095132	0.008381175
37	0x3c974b41	0.018468501
38	0x3ca87ecb	0.020568272
39	0x3bd42539	0.006474164
40	0x3cb0d50d	0.021585966
41	0x3c3eedcf	0.011653378
42	0x3c0edc0a	0.008719454
43	0x3cae7e7f	0.021300552
44	0x3c6156a2	0.013753565
45	0xbd333108	-0.04374793
46	0xbd9df106	-0.07711987
47	0xbd48b169	-0.048997317
48	0xbdaebcbe	-0.085320935
49	0xbd935ff5	-0.07196037
50	0xbcae637c	-0.021287672
51	0xbddb4ecb	-0.10708388
52	0xbe000676	-0.12502465
53	0xbd639232	-0.055559345
54	0xbd3b49c5	-0.04572465
55	0xbda17062	-0.078827634
56	0xbd532e35	-0.05155774
57	0xbd55da94	-0.052210405
58	0xbbe8d8ff	-0.007105946
59	0xbd37fbe2	-0.04491795
60	0xbbf93f5b	-0.0076064295
61	0xbd08893c	-0.033334002
62	0xbd271de7	-0.0408
63	0xbde04357	-0.10950344
64	0xbd262945	-0.0405667
65	0xbd5a0531	-0.053227607
66	0xbd4b10c9	-0.049576554
67	0xbd4090ce	-0.047013097
68	0xbdaac6de	-0.08338712
69	0xbd86b17e	-0.06576823
70	0xbd0a292e	-0.03373068
71	0xbb6e7de3	-0.0036390952
72	0xbc8a2088	-0.016861215
73	0xbc612762	-0.0137423
74	0xbbf4140f	-0.0074486802
75	0xbc6a3391	-0.014294521
76	0xbc924ddd	-0.017859394
77	0xbc8af817	-0.016964002
78	0xbd0efc2d	-0.034908462
79	0xbcc07906	-0.023495208
80	0xbda12bd9	-0.078696914
81	0xbcd0861a	-0.02545457
82	0xbcb8d08e	-0.022560384
83	0xbd0d867a	-0.034552075
84	0x3aa80278	0.0012818119
85	0x3c5d3b4c	0.013502907
86	0xbbc3c12d	-0.005973956
87	0x3cc87e8b	0.024474403
88	0xbba363a2	-0.0049862424
89	0x3a6fc7bc	0.0009146889
90	0x3bd890b7	0.006609048
91	0xbca0e531	-0.019640537
92	0xbe01ee42	-0.12688544
93	0x3de5cde6	0.11220913
94	0x3dc90143	0.09814694
95	0xbd3771a4	-0.04478611
96	0x3e2bfbfa	0.1679534
97	0x3dad3f03	0.08459284
98	0x3b21b45a	0.0024674148
99	0xbcfdaa4a	-0.03096499
100	0x3d88a183	0.06671431
101	0x3d04efcb	0.032455247
102	0x3ca9f66f	0.020747392
103	0x3cd20de9	0.025641399
104	0x3d15948b	0.036518615
105	0xbb1afe45	-0.0023650092
106	0x3c6f090b	0.014589558
107	0x3bc772b5	0.006086672
108	0xbd66eae7	-0.056376364
109	0xbd1a49dd	-0.037668098
110	0x3ac6dd0f	0.0015172082
111	0xbd6c3224	-0.057665005
112	0xbd2c63c8	-0.042087346
113	0xbd6e3533	-0.058156203
114	0xbd115795	-0.035483915
115	0xbca4c636	-0.020114046
116	0xbd308904	-0.04309942
117	0xbd457d53	-0.04821522
118	0xbc2ff5d5	-0.010739763
119	0xba5b2b75	-0.00083606626
120	0xbdee43d5	-0.11634032
121	0xbdaf3a75	-0.08556072
122	0xbd4aea2b	-0.049539726
123	0xbd7ec96c	-0.06220381
124	0xbcd77928	-0.026302889
125	0xbbd97190	-0.006635852
126	0xbba1e629	-0.0049407673
127	0xbc80cb83	-0.015722042
128	0xbdd284a8	-0.102792084
129	0x3c337a2a	0.010954419
130	0x3cee5e9d	0.02909785
131	0xbd82fd88	-0.063960135
132	0x3d43a648	0.047766
133	0x3d8b2275	0.067936815
134	0x3cbcbd16	0.023039382
135	0xbc8f8074	-0.017517306
136	0xbbe889ff	-0.0070965285
137	0x3d66c5c0	0.056340933
138	0xbad20b9b	-0.0016025187
139	0x3c94af20	0.018149912
140	0xbbe2f711	-0.0069264253
141	0x3c240e78	0.010013215
142	0x3b70c956	0.00367411
143	0xbc46168b	-0.012090336
144	0xbd33695a	-0.043801643
145	0xbc0290c4	-0.007969085
146	0xbcfefd75	-0.031126717
147	0xbc80a520	-0.015703738
148	0xbd325896	-0.043541513
149	0xbc930130	-0.017944902
150	0xbd6aa2dd	-0.057284225
151	0x3c18fc22	0.009337457
152	0xbb3a78e8	-0.0028453413
153	0xbd7e10e5	-0.06202783
154	0xbd937b21	-0.07201219
155	0xbdb64c12	-0.08901228
156	0xbd8f79fb	-0.07005688
157	0xbcfaf2d6	-0.030633371
158	0xbd263ae4	-0.040583506
159	0xbd4212ef	-0.047381338
160	0xbd7d9422	-0.06190885
161	0xbd89b4b7	-0.06723922
162	0xbda783a9	-0.08179409
163	0xbd45f4ee	-0.048329286
164	0xbca007b1	-0.019534918
165	0xbd3cad0b	-0.046063464
166	0xbcd0f999	-0.025509642
167	0x3c2084ee	0.009797318
168	0xbd6bcd3b	-0.05756877
169	0x3c12aaac	0.008951824
170	0x3bda72a9	0.0066665006
171	0xbd9ac248	-0.075565875
172	0xbd95fc74	-0.07323542
173	0xbdb68e28	-0.08913833
174	0xbdbded2f	-0.09273755
175	0xbd7a128b	-0.06105284
176	0xbdbb56ab	-0.0914739
177	0xbdae6164	-0.085146695
178	0xbda01f77	-0.078185014
179	0xbd7be048	-0.06149319
180	0xbbcbdba2	-0.0062212506
181	0xbcf10a2e	-0.0294238
182	0xbd18766b	-0.037222307
183	0xbc3f4778	-0.011674754
184	0x3da221a3	0.07916572
185	0x3cf50f9f	0.029914675
186	0x3d49c0e6	0.049256228
187	0x3c6c8d41	0.014437974
188	0x3c8269a1	0.015919508
189	0xbdda9d29	-0.10674507
190	0xbdbe049c	-0.09278223
191	0xbdd5807c	-0.10424897
192	0xbd2a2c19	-0.04154596
193	0xbda65e03	-0.081234
194	0xbda95e69	-0.082699604
195	0xbdb7a4a2	-0.08966948
196	0xbd90ba0a	-0.07066734
197	0xbdd569e8	-0.10420591
198	0xbd3a8b4b	-0.045542996
199	0xbd185460	-0.03718984
200	0xbd2568d1	-0.040383164
201	0xbd2d2eb0	-0.042280853
202	0xbd075ac6	-0.033045553
203	0xbd4e9e14	-0.050443724
204	0xbd41ad08	-0.047284156
205	0xbcca5628	-0.024699286
206	0xbce873ad	-0.028375471
207	0x3dbb8edb	0.09158107
208	0x3d78b337	0.060717788
209	0x3d9a9f99	0.07549972
210	0x3ddfc43d	0.10926101
211	0x3d9ccaa9	0.07655842
212	0x3da8ddb3	0.08245411
213	0x3daec35e	0.08533357
214	0x3e13e189	0.14441504
215	0x3dc28447	0.09497886
216	0xbd0d9e42	-0.034574755
217	0xbd2b54f0	-0.04182905
218	0xbd6a7820	-0.057243466
219	0xbc60d736	-0.013723185
220	0x3ca0f974	0.019650199
221	0xbd6fd876	-0.058556043
222	0x3ca53131	0.020165058
223	0xbd3c602a	-0.045990147
224	0xbcd105f1	-0.025515528
225	0xbdd3c4b0	-0.103402495
226	0xbdd042c9	-0.10168988
227	0xbe1624df	-0.14662503
228	0xbc3a312c	-0.011364263
229	0x3ce78fef	0.028266875
230	0x3c435e5c	0.0119243525
231	0xbd7703c5	-0.06030633
232	0xbcc9f712	-0.024653945
233	0xbdbb1bde	-0.091361746
234	0xbd4b143e	-0.04957985
235	0xbd5ef63f	-0.054434057
236	0xbcfce9a7	-0.030873133
237	0xbcd555bc	-0.026041858
238	0xbd5188c3	-0.051155817
239	0xbc9665ae	-0.018359032
240	0xbc9a6977	-0.018849118
241	0xbce16b48	-0.027516976
242	0xbce78009	-0.028259294
243	0xbd53a5c0	-0.051671743
244	0xbc8fa2a9	-0.017533617
245	0xbcc7235d	-0.024308855
246	0xbd01e0d9	-0.031708572
247	0xbcc57770	-0.024104804
248	0xbcef584c	-0.029216908
249	0x3b9934d1	0.0046754857
250	0xbd432049	-0.04763821
251	0xbcf9f5d0	-0.03051272
252	0xbd85b8ab	-0.06529363
253	0xbcdcea5c	-0.02696722
254	0xbdd884b0	-0.10572183
255	0xbd578ecf	-0.052626427

encoder.c2.main.0.bias f4 [64]
0	0x3d4d5e68	0.05013886
1	0x3be70df3	0.0070512234
2	0x3a93b053	0.0011267759
3	0x3cebb3f0	0.028772324
4	0x3b8f7207	0.004377607
5	0x3c2a5877	0.010397068
6	0x3b402390	0.0029318072
7	0xbd29fe02	-0.041502006
8	0xbc3c606d	-0.011497599
9	0xbcc2b3a4	-0.0237673
10	0xbc3ac83e	-0.0114002805
11	0x3b1588e4	0.002281719
12	0xbbcdd1ec	-0.006281128
13	0xbcfcd71c	-0.03086429
14	0xbb66ad74	-0.00351986
15	0x3cbb1181	0.022835495
16	0xbc337325	-0.010952746
17	0xbc65229a	-0.0139853
18	0x3bc9dddb	0.0061604804
19	0x3c6ffc7e	0.014647601
20	0x3ceb2f30	0.028709024
21	0xbc2a6ccc	-0.010401916
22	0xbc1b0887	-0.009462482
23	0xbc62cab8	-0.013842277
24	0x3d1486fd	0.036261547
25	0xbc3c1691	-0.01147999
26	0xbb05d34c	-0.0020420132
27	0x3c2e80b3	0.0106508015
28	0x3d211646	0.039327882
29	0xbcf09f8b	-0.029372951
30	0xbd0a9ffd	-0.033843983
31	0x3c7b4201	0.015335561
32	0xbd14c443	-0.036319982
33	0xba87506d	-0.0010323651
34	0xbc954eac	-0.01822599
35	0x3d2e36c8	0.042532712
36	0xbc49019f	-0.012268453
37	0xbba85041	-0.00513652
38	0xbc8bc860	-0.01706332
39	0x3bab14fd	0.005221008
40	0x3ca31082	0.019905332
41	0x3cc4c95a	0.024021793
42	0xbc397329	-0.01131896
43	0x3ca530d5	0.020164886
44	0x3a4b0510	0.000774459
45	0xbb69ef25	-0.003569552
46	0x3c749bdd	0.014929739
47	0xbc841155	-0.016121546
48	0xbccd8dcf	-0.025092034
49	0xbc276e27	-0.010219133
50	0x3b376885	0.0027985882
51	0xbd30e9d9	-0.043191765
52	0x3c89ac55	0.016805807
53	0x3cb9f5eb	0.02270027
54	0xbb85e3e6	-0.0040860055
55	0x3b5f0cb8	0.003403468
56	0x3cd7c493	0.026338851
57	0x3cf6a326	0.030107092
58	0xbb55c68b	-0.0032619562
59	0xbcee9e03	-0.02912808
60	0xbc0abfe6	-0.008468604
61	0xbb281a52	-0.0025650454
62	0xbb1497a8	-0.0022673402
63	0xbcac9ea3	-0.021071738

encoder.c2.main.1.weight f4 [64]
0	0x3f80e177	1.0068806
1	0x3f7ab1b1	0.97927386
2	0x3f81e4fc	1.0148005
3	0x3f6c15e1	0.92220885
4	0x3f88c367	1.0684632
5	0x3f696c17	0.91180557
6	0x3f7d428b	0.9892966
7	0x3f7ff14d	0.9997757
8	0x3f6626cd	0.89902955
9	0x3f7a74fc	0.97834754
10	0x3f841540	1.0318985
11	0x3f89984d	1.0749604
12	0x3f603d97	0.8759398
13	0x3f89627e	1.0733182
14	0x3f75b89b	0.9598481
15	0x3f8abfb7	1.0839757
16	0x3f863f12	1.0487998
17	0x3f62f15b	0.8864953
18	0x3f5d5f29	0.8647333
19	0x3f84dfef	1.0380839
20	0x3f8187a1	1.0119516
21	0x3f6a8d7d	0.91622144
22	0x3f769eed	0.9633625
23	0x3f7d3a7e	0.98917377
24	0x3f847259	1.0347396
25	0x3f81eaab	1.014974
26	0x3f76e818	0.96447897
27	0x3f7e409f	0.99317354
28	0x3f84e301	1.0381776
29	0x3f7494f5	0.9553979
30	0x3f89db31	1.0770017
31	0x3f6de46b	0.92926663
32	0x3f7b17f0	0.980834
33	0x3f831333	1.0240234
34	0x3f6e75ad	0.9314831
35	0x3f777a99	0.96671444
36	0x3f84170e	1.0319536
37	0x3f72fa76	0.94913423
38	0x3f85c2c9	1.0450069
39	0x3f768428	0.96295404
40	0x3f7465d5	0.95467883
41	0x3f77a94e	0.96742713
42	0x3f78bb24	0.97160554
43	0x3f7a4797	0.9776549
44	0x3f84d3e6	1.0377166
45	0x3f72da20	0.9486408
46	0x3f6a3600	0.9148865
47	0x3f6954d3	0.91145056
48	0x3f89b3b9	1.0757972
49	0x3f804368	1.0020571
50	0x3f8242c3	1.0176624
51	0x3f8c004f	1.0937594
52	0x3f787729	0.97056824
53	0x3f5efc2a	0.8710352
54	0x3f57b886	0.84265935
55	0x3f71de71	0.94480044
56	0x3f828ee4	1.0199857
57	0x3f71138e	0.94170463
58	0x3f69448e	0.9112023
59	0x3f8635c9	1.0485164
60	0x3f6c768e	0.923684
61	0x3f6390a5	0.88892585
62	0x3f6ea2a9	0.9321695
63	0x3f81e15b	1.0146898

encoder.c2.main.1.bias f4 [64]
0	0xbdace3bf	-0.084418766
1	0xbd9fb7b6	-0.07798712
2	0xbe1412ac	-0.14460248
3	0xbe00e281	-0.12586404
4	0xbd52fed7	-0.051512565
5	0xbe204d0a	-0.15654388
6	0xbe22cbf0	-0.15898108
7	0xbdcdb539	-0.10044331
8	0xbe056e4d	-0.13030358
9	0xbdc351df	-0.095371
10	0xbdb259a3	-0.08708503
11	0xbde135fe	-0.10996626
12	0xbe304cb3	-0.17216758
13	0xbe1b04c3	-0.15138535
14	0xbd40a33c	-0.047030672
15	0xbe43a553	-0.19106035
16	0xbe43042a	-0.19044557
17	0xbe17ff44	-0.1484347
18	0xbe4c6754	-0.19961292
19	0xbb94c8b1	-0.004540526
20	0xbeb9d4ac	-0.36295068
21	0xbe36d5e8	-0.17855036
22	0xbde22b5d	-0.11043427
23	0xbdfc2cd7	-0.1231324
24	0xbe262d24	-0.16228157
25	0xbe842fb7	-0.25817654
26	0xbdc755e0	-0.09733176
27	0xbe297c4b	-0.1655132
28	0xbe0927d7	-0.13394104
29	0xbe0ab344	-0.13544947
30	0xbd86aeda	-0.06576319
31	0xbe0e2e9d	-0.13884969
32	0xbdb98fe4	-0.09060648
33	0xbdee663d	-0.11640594
34	0xbdccc9be	-0.09999417
35	0xbe2c63ec	-0.16834992
36	0xbda7c99d	-0.081927516
37	0xbda9d83f	-0.08293199
38	0xbe242e3b	-0.1603326
39	0xbd9379fd	-0.07201002
40	0xbe0358f9	-0.12826909
41	0xbdaea560	-0.085276365
42	0xbd89ecf5	-0.06734649
43	0xbdb584f9	-0.08863253
44	0xbe7a8967	-0.24466477
45	0xbd58427e	-0.052797787
46	0xbe50660e	-0.20351431
47	0xbdf46d66	-0.119349286
48	0xbe4aed69	-0.19817127
49	0xbde70e42	-0.11282016
50	0xbdba61b2	-0.09100665
51	0xbe37cb5f	-0.17948674
52	0xbdee872a	-0.11646874
53	0xbe32ebed	-0.17472811
54	0xbe5fd39d	-0.21858068
55	0xbdf1d5a4	-0.11808327
56	0xbdde5db8	-0.10857719
57	0xbd93cb1a	-0.07216473
58	0xbe258d28	-0.16167128
59	0xbe3e3382	-0.18574336
60	0xbdfe35b4	-0.12412587
61	0xbe18baf3	-0.14915065
62	0xbdfe6793	-0.12422099
63	0xbe72ef12	-0.2372401

encoder.c2.main.3.weight f4 [64, 64, 3, 3]
0	0xbd5e2fa4	-0.054244652
1	0xbdbac5d1	-0.09119762
2	0xbd91dcd2	-0.07122196
3	0xbc703d6c	-0.014663082
4	0xbdd3056a	-0.10303767
5	0xbd8d7f3c	-0.06909034
6	0xbdb761f0	-0.08954227
7	0xbdf06950	-0.11738837
8	0xbe175301	-0.14777757
9	0x3d13188a	0.035912074
10	0x3d728841	0.059211973
11	0x3d387cb5	0.045040805
12	0xbc1f28a3	-0.009714278
13	0xbad62c94	-0.001634019
14	0xbc0945f3	-0.008378494
15	0xbcb15ed6	-0.021651667
16	0x3c97b1df	0.018517433
17	0x3ce94193	0.028473651
18	0x3d6b7ffd	0.057495106
19	0x3dababba	0.083823636
20	0x3dd633c2	0.10459091
21	0x3c9c5eeb	0.01908823
22	0x3d93a7bd	0.07209728
23	0x3de6bba8	0.11266261
24	0x3c2207c4	0.009889547
25	0x3d77af8f	0.06047016
26	0x3d68ab01	0.056803707
27	0xbaed5c1e	-0.0018109118
28	0xbca11c4e	-0.019666817
29	0x3bfd2054	0.007724801
30	0x3cb45bb5	0.022016386
31	0x3d0ad574	0.03389497
32	0x3c535511	0.012898699
33	0xbc24bf48	-0.010055371
34	0xbd72b845	-0.059257764
35	0xbac976fb	-0.0015370542
36	0xbc27ba25	-0.010237251
37	0x3c2d16c0	0.010564506
38	0xbd67ad4d	-0.056561757
39	0xbd74eb91	-0.059794966
40	0xbc5af1cb	-0.013363312
41	0xbda18db3	-0.07888355
42	0xbdbd828f	-0.09253418
43	0xbdccd6d9	-0.100019164
44	0xbe32ca66	-0.17460021
45	0x3cdee3a2	0.027208153
46	0x3c94fd84	0.018187292
47	0xbce9995c	-0.02851551
48	0xbd83784f	-0.064194314
49	0xbd1fdee9	-0.039030943
50	0xbda81a64	-0.082081586
51	0xbd43d546	-0.047810815
52	0xbd67814b	-0.056519788
53	0xbdc012f0	-0.09378612
54	0xbd1fcfff	-0.03901672
55	0xbd2fa3f5	-0.04288097
56	0xbce56835	-0.028003791
57	0xbc7182e3	-0.0147406785
58	0xbd1065ad	-0.035253216
59	0xbd021909	-0.031762157
60	0xbd8ef3fa	-0.069801286
61	0xbd893a3a	-0.06700559
62	0xbd16c98d	-0.036813308
63	0x3c90db94	0.017682828
64	0x3c9540ec	0.018219434
65	0xbc92c3bc	-0.017915599
66	0x3d555ec9	0.052092347
67	0x3b8483fd	0.0040440545
68	0x3c95557a	0.018229235
69	0xbcdfbaa5	-0.027310679
70	0xbcd3f8dd	-0.025875503
71	0xbca53c35	-0.02017031
72	0xbd1caf5c	-0.038253173
73	0x3be4221b	0.0069620735
74	0xbcd2e89a	-0.025745679
75	0xbd6ec81b	-0.058296304
76	0xbcd61fa0	-0.026138127
77	0xbda7648f	-0.08173477
78	0x3c95d9df	0.018292366
79	0xbc2b73c3	-0.010464611
80	0xbd5edef4	-0.054411843
81	0xbdc3be7e	-0.09557818
82	0xbd71eda8	-0.059064537
83	0xbddb6971	-0.10713471
84	0xbcf8be0c	-0.030364059
85	0xbcd74353	-0.02627722
86	0xbda6e22a	-0.08148606
87	0x3c30cb1c	0.010790613
88	0xbd085e92	-0.033293314
89	0xbc6b3125	-0.014354979
90	0x3cb5a30e	0.022172477
91	0x3d7918ea	0.060814776
92	0x3dad707b	0.084687196
93	0x3c59e33f	0.013298809
94	0x3d24efcc	0.04026775
95	0x3dbd9139	0.09256215
96	0xbc36a559	-0.01114782
97	0x3b7981e2	0.00380718
98	0x3a9b9169	0.0011868897
99	0xbc3941be	-0.011307178
100	0xbd9d6032	-0.076843634
101	0xbd81bec9	-0.063352175
102	0xbb2b943d	-0.0026180886
103	0xbd9af067	-0.07565384
104	0xbcc88a71	-0.024480077
105	0xbc875b6f	-0.016523091
106	0x3bbec00b	0.005821233
107	0xbd2e2d54	-0.042523697
108	0x3c7a1870	0.015264615
109	0xbd02859f	-0.031865712
110	0x3bde735f	0.0067886556
111	0x3d1f1c47	0.038845327
112	0x3da0724b	0.078343
113	0x3d6f9f8e	0.058501773
114	0x3cbf0b83	0.023320919
115	0x3dbe5334	0.092932135
116	0x3d47d3f5	0.048786122
117	0xbd2566f9	-0.040381406
118	0xbd50b5ae	-0.050954513
119	0xbde08e49	-0.10964639
120	0x3c963626	0.018336367
121	0x3bd338ab	0.0064459643
122	0xbc742040	-0.014900267
123	0x3cbe507b	0.023231735
124	0x3bccbc0a	0.006248002
125	0x3d0fa6c8	0.035071164
126	0xbc01efb4	-0.007930685
127	0x3d253bc3	0.040340196
128	0xbca50cac	-0.020147644
129	0xbd1cfbc0	-0.038326025
130	0xbb16aa3e	-0.0022989656
131	0xbc988490	-0.018617898
132	0xbdde25fe	-0.1084709
133	0xbd814aac	-0.06313071
134	0xbc05274c	-0.008127045
135	0xbc195f71	-0.009361134
136	0x3bdb3058	0.0066891126
137	0x3ca3dd3b	0.020002952
138	0x3d174637	0.036932196
139	0x3d685080	0.056717396
140	0x3d5ea783	0.05435897
141	0x3c59eb81	0.013300777
142	0x3d8b28af	0.06794869
143	0x3d2960d3	0.041352104
144	0x3dd44bb9	0.103660055
145	0x3dd3cc17	0.103416614
146	0x3deb9a06	0.11503987
147	0x3dda20ef	0.10650813
148	0x3e1fc6e3	0.15603213
149	0x3e26c139	0.16284646
150	0x3d9c857f	0.0764265
151	0x3e142c50	0.14470029
152	0x3e22286d	0.15835734
153	0x3beb0cad	0.007173142
154	0xbd12dbe8	-0.03585425
155	0xbce48e05	-0.027899751
156	0xbd3f5de0	-0.046720386
157	0xbc6c2a4f	-0.014414384
158	0x3c4d3128	0.012523927
159	0xbd408ad2	-0.04700739
160	0xbdc8d362	-0.09805943
161	0x3c1274a1	0.008938939
162	0xbd2bdee6	-0.04196062
163	0xbd0daf40	-0.03459096
164	0xbd2ba491	-0.04190499
165	0xbcb7d548	-0.022440568
166	0xbd0b0c84	-0.033947483
167	0xbcde8312	-0.027162109
168	0xbd1635ff	-0.03667259
169	0xbd481ff0	-0.048858583
170	0xbd378d9f	-0.044812795
171	0x3d55d089	0.052200828
172	0xbc8401e5	-0.016114185
173	0x3d55c4b6	0.05218955
174	0xbda7e012	-0.08197035
175	0xbd1f7e71	-0.038938943
176	0xbca59a9d	-0.020215327
177	0xbd34cd5c	-0.04414116
178	0xbd85aeea	-0.06527503
179	0xbc20420d	-0.009781373
180	0xbd73b3bc	-0.05949758
181	0xbd226b73	-0.039653253
182	0x3ba189b0	0.0049297437
183	0xbd31dd77	-0.043424096
184	0xbd4afec7	-0.04955938
185	0xbd114866	-0.035469435
186	0xbc22b8ef	-0.009931787
187	0x3cc7bb18	0.024381205
188	0xbc907f5b	-0.017638853
189	0x3d9680b9	0.07348771
190	0x3d832fbd	0.0640559
191	0x3d50cb9c	0.050975427
192	0x3cf5b06f	0.029991357
193	0x3dae6214	0.08514801
194	0x3d871735	0.06596223
195	0x3cbacee4	0.022803731
196	0x3d58cf3a	0.052932
197	0x3d31dc3f	0.043422934
198	0xbd5955d6	-0.053060375
199	0xbd617b46	-0.055049203
200	0xbdbcef60	-0.09225345
201	0xbcbffd03	-0.023436075
202	0x3bebdf11	0.0071982224
203	0xbce7bf6d	-0.028289521
204	0xbc8b5942	-0.017010335
205	0x3c658c50	0.014010504
206	0xbd340ebc	-0.043959364
207	0xbd839aec	-0.064260334
208	0x3ba551e6	0.0050451634
209	0xbcdd21a1	-0.026993575
210	0xbe0609ea	-0.1308972
211	0xbdb41d87	-0.087946944
212	0xbd893358	-0.06699246
213	0xbdbbf6cb	-0.091779314
214	0x3aeffc66	0.0018309474
215	0xbdabeea9	-0.0839513
216	0xbceab7b6	-0.028652053
217	0x3c593c5d	0.013259021
218	0xbd5ed8f1	-0.05440611
219	0x3daaf759	0.08347959
220	0x3de03d2e	0.10949169
221	0x3cbdeaf6	0.023183327
222	0x3d507cc6	0.050900243
223	0x3d6e7af1	0.058222715
224	0x3c315543	0.010823551
225	0xbdee2995	-0.11629025
226	0xbd80fc7f	-0.0629816
227	0xbd92ce03	-0.071682
228	0x3b60d3e4	0.0034305984
229	0x3d21d3a0	0.039508462
230	0x3d351ac1	0.044214968
231	0xbde738a0	-0.11290097
232	0xbbbdf77a	-0.005797324
233	0xbae45ce9	-0.0017422709
234	0xbc2add9c	-0.010428812
235	0xbd2533a7	-0.040332463
236	0xbd42a8c7	-0.04752424
237	0xbd7cab6b	-0.061686914
238	0xbd3ffbac	-0.046870872
239	0xbd340fc9	-0.043960366
240	0xbcfe84e3	-0.031069225
241	0xbc738033	-0.014862108
242	0xbd4e1779	-0.050315354
243	0xbe3b24f8	-0.18275821
244	0xbd3c2bf9	-0.045940373
245	0xbdb87e6c	-0.09008488
246	0xbd285ff8	-0.041107148
247	0x3d698be6	0.057018183
248	0x3cc7a30b	0.024369737
249	0xbdfd63ae	-0.12372528
250	0xbd479154	-0.04872258
251	0xbcc52d97	-0.02406959
252	0x3d4a6c70	0.04941982
253	0x3dd2c1a9	0.10290844
254	0x3d88dc33	0.06682625
255	0x3d24b2e2	0.04020966

encoder.c2.main.3.bias f4 [64]
0	0x3c0f91b7	0.0087627685
1	0xbba363df	-0.004986271
2	0x3b760e3c	0.0037545105
3	0xbb9628bb	-0.004582492
4	0xb9caf9f3	-0.0003871467
5	0xbaa63ec0	-0.0012683496
6	0xba8e91b1	-0.001087716
7	0x3c5e26f4	0.013559092
8	0x3cb516dc	0.022105627
9	0x3ad7f175	0.0016475158
10	0xbb60b136	-0.0034285313
11	0xbb6b104d	-0.003586787
12	0x3c9ca44e	0.019121315
13	0xbac9e356	-0.0015402834
14	0x3c2c3b49	0.010512182
15	0x3b38fe1a	0.0028227628
16	0x3d1b989d	0.03798734
17	0x3bdbbc23	0.0067057773
18	0x3cc26244	0.023728497
19	0x3bb1cc3f	0.0054259594
20	0x3b6f1fc3	0.0036487437
21	0xbb23f4e4	-0.0025017792
22	0xb9ce81a2	-0.00039387966
23	0xbbcef4e7	-0.0063158157
24	0x3bb20b48	0.0054334737
25	0x3ba66dcf	0.005079008
26	0x3aa5afc3	0.0012640882
27	0xbb66ab95	-0.0035197486
28	0x3c492a7e	0.012278197
29	0xbae5dc84	-0.0017537032
30	0x3c06c423	0.008225474
31	0x3c8ae29b	0.016953757
32	0xbae32a21	-0.0017331281
33	0x3bae25c6	0.0053145615
34	0xbacd6818	-0.0015671281
35	0x3b8f2562	0.00436847
36	0x3d194b27	0.037425186
37	0x3ac543d6	0.0015050124
38	0xbbdf65f2	-0.0068175728
39	0xbc359d7e	-0.011084912
40	0x3c19c608	0.009385593
41	0xbb8406b5	-0.00402912
42	0xbbfc80a4	-0.007705765
43	0xbb8b1829	-0.0042448235
44	0x3baf2804	0.0053453464
45	0x3ab62c83	0.0013898764
46	0xbcd50589	-0.026003616
47	0x3c6743ba	0.014115268
48	0x3b598b42	0.0033194576
49	0x3a943cbe	0.0011309606
50	0x3c895d6a	0.016768176
51	0x3c8c3c62	0.017118637
52	0xbc9f8dbd	-0.019476766
53	0xbbb644bf	-0.0055623944
54	0xba963a86	-0.0011461533
55	0xbc177745	-0.009244745
56	0x3a23feb6	0.00062559114
57	0x3c378802	0.01120186
58	0xbc11e241	-0.008904041
59	0x3af41b8c	0.0018623932
60	0x3ced9fcf	0.029006867
61	0x3beacbb4	0.0071653966
62	0xbb0d665e	-0.0021575908
63	0xbc6839e7	-0.014173961

encoder.c2.main.4.weight f4 [64]
0	0x3f811ef6	1.0087574
1	0x3f7db014	0.990968
2	0x3f821633	1.0163025
3	0x3f78d776	0.9720377
4	0x3f6c6217	0.92337173
5	0x3f778f01	0.9670258
6	0x3f70ec13	0.9411022
7	0x3f815bcb	1.0106138
8	0x3f81906f	1.0122203
9	0x3f6447c5	0.8917201
10	0x3f8346f4	1.0256028
11	0x3f659404	0.8967898
12	0x3f7c919e	0.98659694
13	0x3f714090	0.9423914
14	0x3f6d3583	0.9265978
15	0x3f7a15a8	0.97689295
16	0x3f881290	1.0630665
17	0x3f6155f3	0.88021773
18	0x3f7aa05d	0.97900945
19	0x3f7b8b12	0.9825908
20	0x3f6d3548	0.92659426
21	0x3f76cd4b	0.96407
22	0x3f7d426a	0.98929465
23	0x3f71b0b1	0.94410235
24	0x3f67f7fa	0.9061276
25	0x3f733a5f	0.9501094
26	0x3f75ff76	0.9609293
27	0x3f5946f6	0.848739
28	0x3f885af0	1.0652752
29	0x3f7f972e	0.99840057
30	0x3f88a9e0	1.0676842
31	0x3f870dd8	1.05511
32	0x3f7a8963	0.97865885
33	0x3f66b331	0.90117174
34	0x3f82b1c3	1.0210499
35	0x3f6f6499	0.93512875
36	0x3f8898b3	1.06716
37	0x3f61fc6a	0.8827578
38	0x3f83bdc7	1.029229
39	0x3f756224	0.95852876
40	0x3f62e1ea	0.8862597
41	0x3f80b84c	1.0056243
42	0x3f838020	1.0273476
43	0x3f6efb42	0.9335214
44	0x3f6d55c1	0.92708975
45	0x3f74c514	0.9561322
46	0x3f84ceb2	1.0375578
47	0x3f7af2a9	0.9802652
48	0x3f797e63	0.97458476
49	0x3f8215d7	1.0162915
50	0x3f75bd42	0.9599191
51	0x3f78ebd7	0.97234863
52	0x3f826954	1.0188394
53	0x3f8349c8	1.0256891
54	0x3f81aff9	1.0131828
55	0x3f899681	1.0749055
56	0x3f7c6bce	0.98601997
57	0x3f8a0e3b	1.0785593
58	0x3f76a025	0.9633811
59	0x3f858c21	1.0433389
60	0x3f820d23	1.0160259
61	0x3f823aef	1.0174235
62	0x3f8a088e	1.0783861
63	0x3f77a1e6	0.9673141

encoder.c2.main.4.bias f4 [64]
0	0xbda485cf	-0.080333345
1	0xbd82fddd	-0.06396077
2	0xbdfdf936	-0.12401049
3	0xbe58269f	-0.21108483
4	0xbd7a5bff	-0.06112289
5	0xbdfaaa7b	-0.12239548
6	0xbd8ddefe	-0.06927298
7	0xbd99e77c	-0.07514855
8	0xbd9f0b46	-0.07765822
9	0xbdd38869	-0.103287525
10	0xbe4b27cf	-0.19839405
11	0xbe1936ea	-0.14962354
12	0xbe8de5cf	-0.27714393
13	0xbdc2ab25	-0.095052995
14	0xbd8adaa0	-0.06779981
15	0xbdd8ca6a	-0.105854824
16	0xbe3cb227	-0.18427335
17	0xbe019991	-0.12656237
18	0x3d853fa0	0.06506276
19	0xbdf8050e	-0.12110339
20	0xbe05092c	-0.1299178
21	0xbdc905dc	-0.09815571
22	0xbda88f9e	-0.08230518
23	0xbde01581	-0.109416015
24	0xbe4d78f9	-0.20065679
25	0xbca43ad7	-0.020047588
26	0xbe879f18	-0.26488566
27	0xbe8116ea	-0.25212795
28	0xbe08f451	-0.1337445
29	0xbdcd1dd3	-0.10015454
30	0xbdcf02e7	-0.101079755
31	0xbdd0555d	-0.10172532
32	0xbda4c6f1	-0.080457576
33	0xbe20cbff	-0.15702818
34	0xbe0c3597	-0.13692318
35	0xbd4d5181	-0.050126556
36	0xbdfe1158	-0.12405652
37	0xbe2b4507	-0.1672555
38	0xbe8687f3	-0.26275596
39	0xbe0675be	-0.13130853
40	0xbe027ae6	-0.12742195
41	0x3bcd4aac	0.006265005
42	0xbe2aed60	-0.16692114
43	0xbe6a8b2a	-0.2290465
44	0xbdde70d0	-0.10861361
45	0xbe20e51e	-0.15712401
46	0xbdc5fc50	-0.096672654
47	0xbc896072	-0.016769622
48	0xbdb7207f	-0.08941745
49	0xbdc85e68	-0.097836316
50	0xbe744d25	-0.23857553
51	0xbdc23882	-0.09483434
52	0xbc96c039	-0.018402206
53	0xbe09b928	-0.13449538
54	0xbe137a7d	-0.14402194
55	0xbd9240fa	-0.071412995
56	0xbded41c6	-0.11584811
57	0xbd2c9710	-0.042136252
58	0xbdb02b4b	-0.086020075
59	0xbd6445d0	-0.05573064
60	0xbdafa66b	-0.085766636
61	0xbdc81510	-0.09769642
62	0xbe2b44bf	-0.16725443
63	0xbe1b7a62	-0.15183404

encoder.c3.0.weight f4 [32, 64, 3, 3]
0	0x3c2f8131	0.010711954
1	0x3d8fc981	0.07020856
2	0xbb150d59	-0.0022743552
3	0x3d1ed703	0.03877927
4	0x3d4fa3c8	0.050693303
5	0x3d40f5c2	0.047109373
6	0x3d36f25e	0.044664733
7	0x3d9ff357	0.07810085
8	0x3d05c84f	0.032661732
9	0xbb13c70d	-0.0022549063
10	0xbcb8a150	-0.022537857
11	0xbd1d7e43	-0.03845049
12	0x3cdaf085	0.026726017
13	0x3ba18170	0.00492876
14	0xbc48b64d	-0.012250495
15	0xbc0c2035	-0.008552601
16	0x3af26691	0.0018493702
17	0xbb4dfc32	-0.0031430838
18	0xbd93652b	-0.07197031
19	0xbd3d577a	-0.046226002
20	0x3cdab50e	0.026697662
21	0xbde98e66	-0.114041135
22	0xbdaa5b2e	-0.083181724
23	0xbcce94cd	-0.025217438
24	0xbdb8a23e	-0.0901532
25	0xbdba93ec	-0.09110245
26	0x3bc67eed	0.006057611
27	0x3d1a25c3	0.03763367
28	0x3d3912b7	0.045183863
29	0x3dcb8027	0.099365525
30	0xbc51b2be	-0.012798963
31	0x3d052b27	0.032511856
32	0x3d572611	0.052526537
33	0xbd4e7d51	-0.05041248
34	0xbbfbe225	-0.0076868706
35	0x3cec5d3a	0.028853048
36	0xbd557c60	-0.052120566
37	0xbd8073fb	-0.062721215
38	0xbcb6c2c8	-0.022309676
39	0xbc804df2	-0.015662167
40	0xbcc4bb26	-0.02401502
41	0x3b7cba69	0.0038563258
42	0xbd1906b8	-0.037359923
43	0xbd3c34e0	-0.045948863
44	0xbc227ee5	-0.009917949
45	0x3d89a9ee	0.06721865
46	0x3c4a1808	0.012334831
47	0x3cd27579	0.025690781
48	0x3cf1fdd4	0.02953998
49	0x3d007cd4	0.031369045
50	0x3d820b31	0.06349791
51	0x3d907a65	0.07054595
52	0x3db84e61	0.089993246
53	0x3d35a5a5	0.044347424
54	0xbce1b880	-0.027553797
55	0x3c82f26b	0.015984735
56	0xbbce2e2d	-0.0062921257
57	0x3ca8c439	0.020601379
58	0x3d306245	0.043062467
59	0x3c3fe032	0.011711167
60	0xbc2e32f9	-0.01063227
61	0xbca1e7c0	-0.019763827
62	0x3c124ffb	0.008930202
63	0x3d2bfa85	0.04198696
64	0x3d901607	0.070354514
65	0x3daecf6a	0.08535655
66	0x3db15921	0.08659578
67	0x3d3084fd	0.043095578
68	0x3d84f24a	0.064915255
69	0x3d500a5b	0.050791126
70	0x3c47d14c	0.012195896
71	0x3c9b91b6	0.018990379
72	0x3ce34dcd	0.02774706
73	0xbb044f33	-0.0020188808
74	0x3c9eafbb	0.019370904
75	0x3db89d21	0.09014345
76	0x3db15d64	0.08660391
77	0x3d20916e	0.039201193
78	0x3d7c909d	0.06166135
79	0x3da3b6d7	0.07993858
80	0x3d6df26e	0.058092527
81	0x3bb859c8	0.005625937
82	0x3bde58cc	0.0067854878
83	0xbd06753b	-0.032826643
84	0x3b853fcf	0.0040664445
85	0xbc772127	-0.015083588
86	0xbc760497	-0.015015743
87	0xbc47bd93	-0.012191194
88	0xbd620607	-0.05518153
89	0xbd5d6e66	-0.054060362
90	0x3c40fdb1	0.011779235
91	0x3cfeff50	0.031127602
92	0x3dc02862	0.093827024
93	0xbc24e277	-0.010063759
94	0xbd4f9d42	-0.050687082
95	0x3caad9fb	0.020855894
96	0xbd2840fe	-0.041077606
97	0xbd8057b6	-0.062667295
98	0x391dfddb	0.00015067255
99	0xbc81145e	-0.015756782
100	0x3c2a5b1a	0.010397697
101	0x3d1d9a56	0.038477264
102	0x3cfcd589	0.03086354
103	0xba496339	-0.0007682327
104	0x3c1f7036	0.009731343
105	0x3cd5f8ff	0.026119707
106	0x3c6d98a6	0.014501726
107	0xbc0068cf	-0.007837488
108	0xbcd0fe6e	-0.025511947
109	0x3ca67b59	0.020322489
110	0xbd5b50fc	-0.05354403
111	0xbb152076	-0.0022754944
112	0xbc78a24b	-0.015175412
113	0xbd4dc080	-0.05023241
114	0x3ce4c5d4	0.027926363
115	0x3d6add33	0.05733986
116	0x3b71e1b8	0.003690822
117	0x3d37ea33	0.044901084
118	0x3d05d7e5	0.032676596
119	0x3cd035cc	0.025416277
120	0x3d6424d0	0.05569917
121	0x3d32d435	0.043659408
122	0x3d219905	0.03945257
123	0x3d963633	0.073345564
124	0x3d944878	0.07240385
125	0x3d4dca01	0.050241474
126	0xbb84d0a5	-0.0040531927
127	0xbcf785fe	-0.03021526
128	0x3d4b4e13	0.049635004
129	0x3cd5f653	0.026118433
130	0x3c6d57ff	0.014486312
131	0x3d45db08	0.048304588
132	0x3d1777cb	0.036979478
133	0x3d0512e4	0.03248872
134	0x3d6c7152	0.05772526
135	0x3cc7e5a5	0.024401495
136	0x3c8026a9	0.015643435
137	0x3d228ba9	0.03968397
138	0x3d6bb3ec	0.057544634
139	0x3d891d44	0.06695035
140	0x3c2e203b	0.0106278015
141	0x3d97d8c6	0.07414393
142	0x3d836816	0.06416337
143	0x3d78dbe1	0.060756568
144	0x3bd32948	0.00644413
145	0xbc7bd691	-0.015370981
146	0xbbf2c983	-0.007409276
147	0xbb9bcff7	-0.004755016
148	0x3bf35e93	0.0074270456
149	0x3cef3844	0.029201634
150	0xbb81ca45	-0.00396088
151	0x3d82cbcf	0.0638653
152	0x3d6f1ecd	0.058378983
153	0x3cbd22b6	0.02308784
154	0xbadcc23c	-0.0016842554
155	0x3c8bd2b1	0.017068239
156	0x3cfe4ae7	0.031041576
157	0x3d7df809	0.062004123
158	0x3d2f96f6	0.042868577
159	0x3d001354	0.031268433
160	0x3c755dde	0.014975993
161	0x3c1e60f6	0.009666672
162	0xbd51410c	-0.051087424
163	0x3bf2c92f	0.007409237
164	0x3b605558	0.0034230556
165	0xbc11adfd	-0.00889158
166	0x3c914ae5	0.017735908
167	0x3d1cad13	0.038250994
168	0xbc34b97c	-0.011030551
169	0xbce59b89	-0.028028267
170	0xbd1928e8	-0.037392527
171	0x3dce3a6c	0.10069737
172	0xbc1ef7f9	-0.009702676
173	0x3d5b2871	0.053505365
174	0xbca2c687	-0.019870056
175	0xbd04ef5f	-0.032454845
176	0xbd0aee1c	-0.033918485
177	0xbd081afc	-0.03322886
178	0xbd1945ba	-0.037420012
179	0xbb524198	-0.0032082554
180	0x3cf5fb43	0.030027037
181	0x3c986770	0.01860401
182	0x3cd6610c	0.026169322
183	0x3cd4a236	0.025956254
184	0x3cb3fcf3	0.021971202
185	0x3c6a5c5c	0.014304247
186	0x3be33b66	0.006934571
187	0x3b9f1c10	0.00485564
188	0x3d2bb42a	0.041919865
189	0x3ce14641	0.02749932
190	0x3cec3b2c	0.02883681
191	0x3d27cf0a	0.040968932
192	0x3c81fcfd	0.015867705
193	0x3c202b48	0.009775944
194	0x3c913d78	0.017729506
195	0x3d0d7797	0.034537878
196	0xbc593ed6	-0.01325961
197	0x3d2a125e	0.041521423
198	0x3c721d89	0.01477755
199	0x3c7eadb2	0.015544342
200	0x3d13170f	0.035910662
201	0x3e0ca5e0	0.13735151
202	0x3d9d378f	0.076766126
203	0x3d855e7f	0.06512164
204	0x3de98b9e	0.11403583
205	0x3d1dc5d9	0.03851876
206	0x3d5b0e62	0.053480513
207	0xbc7b6ed3	-0.015346247
208	0xbb91b938	-0.0044471286
209	0xbcf5fe89	-0.030028598
210	0xbc33d3c6	-0.010975784
211	0xbd08694c	-0.033303544
212	0xbbc7d60a	-0.0060985135
213	0xbca5bbb8	-0.020231113
214	0xbd0c2e74	-0.03422399
215	0xbd6fd7ff	-0.0585556
216	0x3d05786c	0.032585546
217	0x3cbab3e5	0.022790859
218	0x3d860fcd	0.065459825
219	0x3d0e8dbc	0.034803137
220	0x3d10edaa	0.035382904
221	0x3d059679	0.032614205
222	0x3d21ab9c	0.0394703
223	0x3c733e24	0.014846358
224	0x3cf62889	0.030048626
225	0x39b57993	0.0003461359
226	0x3bbf61f8	0.005840536
227	0x3d3b2f8b	0.045699637
228	0x3c9b1d20	0.018934786
229	0x3cf27bff	0.029600142
230	0x3d275e7c	0.04086159
231	0x3b7301da	0.003707996
232	0x3c34e70a	0.011041412
233	0x3d54e614	0.051977232
234	0xbc2d3798	-0.010572337
235	0xbd028f37	-0.03187486
236	0xbd04e7ce	-0.03244763
237	0x3cc47400	0.023981094
238	0xbd030ecf	-0.031996544
239	0xbb0b3b90	-0.0021245219
240	0x3b6c3e13	0.0036047741
241	0xba975514	-0.0011545741
242	0x3c4555a0	0.01204434
243	0xbbb660f1	-0.0055657555
244	0xbb6c2037	-0.0036029944
245	0x3b65d852	0.0035071564
246	0x3c895023	0.016761845
247	0x3d753e16	0.059873663
248	0x3d67ab6e	0.056559972
249	0x3d2ff35b	0.04295669
250	0x3d158894	0.036507204
251	0x3d8fb68f	0.07017242
252	0xbdd96915	-0.10615746
253	0xbdea00da	-0.11425944
254	0xbbf94b73	-0.007607871
255	0xbdd8ff46	-0.105955645

encoder.c3.0.bias f4 [32]
0	0x3c956d77	0.018240673
1	0xbc38d1bc	-0.011280473
2	0x3c19ed80	0.009395003
3	0xbc00d36e	-0.007862909
4	0x3c0cced2	0.008594232
5	0xbc28b1d3	-0.010296303
6	0xbc8922f9	-0.01674031
7	0xbcdc5a07	-0.026898397
8	0x3c7074a0	0.014676243
9	0xbc02dc57	-0.007987103
10	0x3cde7d87	0.027159465
11	0xbcc83667	-0.024440004
12	0xbbf0a2c0	-0.00734362
13	0xba4405e9	-0.00074776873
14	0xbc598951	-0.013277368
15	0xbc553b5a	-0.013014639
16	0x3bfd43d1	0.0077290316
17	0x3c9423f6	0.018083554
18	0xbb968558	-0.0045935325
19	0x3c78cb22	0.015185149
20	0x3c14f3d3	0.009091335
21	0xbc8f0371	-0.017457696
22	0xbb4c080a	-0.0031132721
23	0xbc584432	-0.013199853
24	0xbc23d65c	-0.009999838
25	0xbc2f8f0a	-0.0107152555
26	0xbbd40e0d	-0.0064714015
27	0xbb1cc3e6	-0.0023920476
28	0x3c139497	0.009007595
29	0x3c0358e9	0.008016803
30	0xbc2c49b0	-0.010515615
31	0x3bf34078	0.0074234568
